models/tf_collaborative_recommender/article_biases.npy (npy, 16128 bytes, 1 tensors)

array f4 [4000, 1]
000000 e3 f1 18 bd 68 bc 69 3c 39 d8 66 3d 7a 41 9d 3d
       -0.037340056 0.014266111 0.05635855 0.07678504
000010 65 23 08 3d 22 f1 f1 3c 53 77 e1 ba ce 46 8c ba
       0.03323688 0.029533926 -0.0017201699 -0.0010702254
000020 74 10 0f 3d b1 21 6b 3c e3 6d c9 39 21 3d d1 bc
       0.0349278 0.014351294 0.0003841958 -0.025541844
000030 dd 3e 34 3d c5 a7 85 3d ac a5 ad 3d b8 17 a7 bc
       0.044005264 0.0652614 0.08478865 -0.020397052
000040 ef 49 59 3c eb 11 bd b8 1c f1 82 3d c7 a4 f7 bb
       0.013262256 -9.01556e-05 0.06393644 -0.007557485
000050 2e 29 c3 3c 83 a5 83 3c a2 15 81 bc ea 67 f1 3c
       0.023823347 0.016070133 -0.015757386 0.029468495
000060 ca e8 49 3d b2 1f b6 3c d9 65 58 bc f7 0b 22 3d
       0.04929427 0.02223191 -0.013207876 0.03956219
000070 df cb 41 bc 50 fb 93 3c 14 85 25 3d 0d 8b 9c bc
       -0.011828392 0.018064171 0.040410116 -0.019109273
000080 1a 06 06 3d 41 6f cc bb 5e 19 27 3c 02 bf 1d bd
       0.032720663 -0.0062388484 0.010198919 -0.038512237
000090 40 34 5d 3c 64 af 0a bd d9 69 e1 3c b2 b8 c3 3c
       0.013501227 -0.03385867 0.027516292 0.02389178
0000a0 99 7f 51 3c 29 0e 71 bb 56 e5 23 bc b3 6f 9b 3c
       0.012786769 -0.0036782122 -0.010003408 0.01897416
0000b0 4e 07 27 3d 84 5b 8d 3c d9 ba d7 3c 51 44 3f bb
       0.04077845 0.017255552 0.026334213 -0.0029185007
0000c0 68 de 97 3c 6b f5 9e 3d bb 18 f5 3c 61 4c 88 3c
       0.018538669 0.077616535 0.029919019 0.016637983
0000d0 0c a0 18 3d 3b c1 8e bc 6a 88 f1 bb 65 43 bd 39
       0.037262008 -0.017426124 -0.007370998 0.00036099102
0000e0 a8 3a 1f 3d 49 2e 44 3c 16 a9 6d 3d e8 a5 02 bd
       0.0388743 0.011973926 0.05802258 -0.0318965
0000f0 6c 2b a5 3d 4c f0 16 3c 61 a2 22 3c cc 27 ce bb
       0.08064923 0.009212565 0.009926409 -0.0062913653
000100 aa 56 e0 bc b2 a2 01 3c b2 a8 80 3d c6 c1 2b bd
       -0.027385075 0.007912325 0.06282176 -0.041932844
000110 c2 3a eb bc 83 e0 73 3d 51 58 13 bd 24 f7 33 3c
       -0.028714541 0.059540283 -0.035972897 0.010984216
000120 60 e1 db bc 52 92 9c bc f5 0d bc 3b 12 ac c4 3c
       -0.026840866 -0.01911274 0.0057389685 0.02400783
000130 c7 c3 7b 3c b4 bc 21 3d f1 30 df bc a1 85 20 3b
       0.015366501 0.039486602 -0.027245017 0.0024493712
000140 70 65 13 bd 37 8c 3d 3d ac 50 1c bd e2 ac 3b 3b
       -0.03598541 0.046276297 -0.038162872 0.0028636982
000150 24 96 af 3c fb b6 ed ba b5 14 52 3d 23 c2 5c 3c
       0.021433897 -0.0018136197 0.05128928 0.01347402
000160 ee 37 a4 bc 44 27 03 bd be 94 15 3b f5 f0 82 3b
       -0.0200462 -0.03201987 0.0022824253 0.0039960095
000170 b7 33 e3 3c eb 97 3e bc 07 aa d6 ba 91 71 34 3c
       0.02773462 -0.0116329 -0.0016377576 0.0110134045
000180 3d 02 63 bb d6 dd d2 3c 64 db 30 bd b5 29 2f 3b
       -0.0034638785 0.025740545 -0.043177977 0.002672774
000190 30 93 e2 3c 44 87 4e 3d 51 71 73 3d 7c de 4c 3d
       0.027658075 0.050421968 0.05943424 0.050016865
0001a0 ed a1 88 bb 9a c4 86 bb 19 98 6f 3d 31 f6 3e 3d
       -0.0041696937 -0.004112792 0.05849466 0.046621505
0001b0 ae 74 86 bc e7 ec 5f 3c 25 f9 e1 3c 41 65 b8 3c
       -0.01641306 0.013667322 0.027584622 0.02250922
0001c0 4e 7b ec 3c 51 65 8e 3c c3 ea 55 bc 55 a8 d8 3c
       0.02886739 0.017382296 -0.01305646 0.026447454
0001d0 83 10 d7 bc 7b dd 1c bc fc c3 4d ba 4a e0 a1 bc
       -0.02625299 -0.009574289 -0.00078493333 -0.01976027
0001e0 51 03 45 3d a0 22 03 3c ee bd b2 bb 80 40 83 3d
       0.048098866 0.008003861 -0.0054547703 0.06408787
0001f0 13 62 8d 3c 39 ab 6d 3c 91 a4 9d 3c f0 9d 13 bd
       0.01725868 0.014506155 0.01924351 -0.036039293
000200 f3 0c 21 3c 2c 69 82 bc c8 70 a4 bc 10 d0 6b 3c
       0.0098297475 -0.01591929 -0.02007331 0.014392868
000210 1a 6a a9 3d 83 0f b4 3d ca 7f ce 3c 29 86 13 3b
       0.082721904 0.08792021 0.025207419 0.0022510386
000220 f2 ce 1b 3c 3c a3 14 bd 03 0d 70 bc 64 9c bb bc
       0.009509789 -0.036288485 -0.01465154 -0.022901721
000230 d2 1f 40 3d 99 26 02 bd 28 64 8a 3a 5d 89 e0 3c
       0.046905346 -0.03177509 0.0010558413 0.02740925
000240 55 74 88 3d df c3 96 bc 65 ed aa 3c 63 e5 1e 3d
       0.066628136 -0.018403945 0.020865152 0.03879298
000250 5e 4f 16 bd 75 d4 0f bd 8b 31 92 3c b7 7f 00 3d
       -0.036696784 -0.035114724 0.01784589 0.0313718
000260 4f 99 36 3c 8c bb 56 3d 7b c6 52 bc e8 e6 18 3c
       0.01114495 0.052424952 -0.012864704 0.009332396
000270 95 94 97 bc cb 7c 2f 3b 5c ee 5a 3d 8e d1 db ba
       -0.018503467 0.0026777263 0.053449973 -0.0016770826
000280 64 a3 24 bc 33 6e 06 bd b5 6d cb 3c 67 55 1c 3c
       -0.010048721 -0.032819938 0.024832586 0.009541846
000290 7f 98 fa 3c 7d 7a 11 bd 45 8e ca bb c7 e1 ab 3c
       0.030590294 -0.035517205 -0.0061815106 0.020981682
0002a0 6f bb e1 3c 81 ac 83 3d 11 75 50 3b 43 91 25 3c
       0.027555196 0.06429387 0.0031808058 0.010105434
0002b0 15 bb 56 3d 16 9c 98 3d c1 59 a0 3d 6b b0 9c bc
       0.05242451 0.07451646 0.07829619 -0.019127091
0002c0 c8 39 5d 3d fd 47 73 3d 6c cf 0a 3d 11 1e 52 3d
       0.054010183 0.059394825 0.03388922 0.051298205
0002d0 d4 0a 7f bb 95 78 33 3c b3 ed 15 bd c4 d6 b6 3c
       -0.0038916366 0.010954042 -0.03660364 0.022319205
0002e0 cf e0 b0 3b 35 d0 92 3d 7f 2d 9b bc fe 48 a6 3b
       0.005397893 0.071686186 -0.018942593 0.0050746193
0002f0 f0 60 9d 3b 15 21 ed 3a 41 5d 93 39 23 36 12 39
       0.0048028156 0.0018091524 0.00028107504 0.00013943813
000300 55 90 98 3b 66 ea dc bc f6 75 44 bc 22 1e ec 3c
       0.0046558776 -0.026967239 -0.011991015 0.028822962
000310 07 48 ad bc 48 d2 d4 bb bb 29 13 3d 85 ef 66 3d
       -0.02115251 -0.006494794 0.03592847 0.056380767
000320 fc 74 02 3c 9d 18 a4 3c 70 34 c2 3c 6c 16 27 bd
       0.007962462 0.020031268 0.023706645 -0.040792868
000330 19 bf b4 3d 18 c4 13 bc c6 79 03 3b 13 40 92 3d
       0.088255115 -0.00901892 0.0020061596 0.071411274
000340 65 c9 a8 bc 3f 6e 5f 3c 77 0f e0 3c bc d1 f0 3c
       -0.020603845 0.013637125 0.027351124 0.029396884
000350 16 bc 1d bc 11 2c ac 3c 4a a1 21 bc 9b cc 7d 3d
       -0.009627363 0.021017106 -0.009865114 0.061962705
000360 6d b7 ac bc ee 86 04 3d 26 54 9b 3d dd 59 87 3d
       -0.021083558 0.03235524 0.075844094 0.06608937
000370 9c b3 e8 3c ba f5 3b 3c 44 42 f6 3b 8d 8f 89 3c
       0.028405957 0.01147216 0.0075152237 0.016792083
000380 c3 78 47 3d 5e 16 f7 bc 5d 51 96 3c ad c6 dd bc
       0.04869915 -0.030162033 0.018349344 -0.027072275
000390 88 f4 99 3b 83 62 78 3d 9f b9 13 3d 80 f0 bf bc
       0.00469834 0.060640823 0.036065694 -0.023430109
0003a0 b3 b2 77 bc a1 c7 59 3a 70 9f f0 ba 5c 0a f8 39
       -0.015118289 0.000830764 -0.0018358063 0.00047309964
0003b0 25 af f2 ba ae b1 ee ba 28 06 dc 3c 3f 9f e4 3c
       -0.0018515332 -0.0018210912 0.026858404 0.027907966
0003c0 96 73 04 bc ce 37 f9 bc 59 7f 3f 3d ee 6b 49 3b
       -0.008084198 -0.030422118 0.046752308 0.0030734497
0003d0 8d 9d 98 bc c4 ef 83 3d c2 76 c2 bc e9 53 a4 3b
       -0.018629814 0.06442216 -0.023738269 0.0050148857
0003e0 bd ae 4a 3d 4e da 5c 3d 11 92 21 3d e7 eb fe bc
       0.04948305 0.05391913 0.03944594 -0.031118346
0003f0 c2 29 d4 3b 05 b8 45 3c 3b 9a f8 3c bb 4d a4 3c
       0.0064747045 0.012067799 0.03034698 0.020056596
